800000/800000 - 56s - loss: 1.0096e-04 - mae: 0.0076 - mse: 1.0095e-04
[0.00010095505512283125, 0.0075887227, 0.00010095498]


200000/200000 - 14s - loss: 1.0127e-04 - mae: 0.0076 - mse: 1.0127e-04
[0.00010127118149015587, 0.007606721, 0.00010127115]


Model: "sequential"
_________________________________________________________________
Layer (type)                 Output Shape              Param #   
=================================================================
dense (Dense)                (None, 100)               5000      
_________________________________________________________________
dropout (Dropout)            (None, 100)               0         
_________________________________________________________________
dense_1 (Dense)              (None, 80)                8080      
_________________________________________________________________
dropout_1 (Dropout)          (None, 80)                0         
_________________________________________________________________
dense_2 (Dense)              (None, 50)                4050      
_________________________________________________________________
dropout_2 (Dropout)          (None, 50)                0         
_________________________________________________________________
dense_3 (Dense)              (None, 1)                 51        
=================================================================
Total params: 17,181
Trainable params: 17,181
Non-trainable params: 0
_________________________________________________________________
None
