800000/800000 - 28s - loss: 2.2391e-04 - mae: 0.0108 - mse: 2.2390e-04
[0.0002239057112793671, 0.01078714, 0.00022390494]


200000/200000 - 7s - loss: 2.2378e-04 - mae: 0.0108 - mse: 2.2378e-04
[0.00022378183281631208, 0.010785387, 0.00022378136]


Model: "sequential"
_________________________________________________________________
Layer (type)                 Output Shape              Param #   
=================================================================
dense (Dense)                (None, 500)               25000     
_________________________________________________________________
dropout (Dropout)            (None, 500)               0         
_________________________________________________________________
dense_1 (Dense)              (None, 200)               100200    
_________________________________________________________________
dropout_1 (Dropout)          (None, 200)               0         
_________________________________________________________________
dense_2 (Dense)              (None, 100)               20100     
_________________________________________________________________
dropout_2 (Dropout)          (None, 100)               0         
_________________________________________________________________
dense_3 (Dense)              (None, 1)                 101       
=================================================================
Total params: 145,401
Trainable params: 145,401
Non-trainable params: 0
_________________________________________________________________
None
