797169/797169 - 43s - loss: 2.4561e-05 - mae: 0.0035 - mse: 2.4561e-05
[2.456078358276448e-05, 0.003486377, 2.4560806e-05]


199292/199292 - 8s - loss: 2.4605e-05 - mae: 0.0035 - mse: 2.4605e-05
[2.4605243475436033e-05, 0.003484041, 2.4605211e-05]


Model: "sequential"
_________________________________________________________________
Layer (type)                 Output Shape              Param #   
=================================================================
conv2d (Conv2D)              (None, 6, 6, 32)          160       
_________________________________________________________________
conv2d_1 (Conv2D)            (None, 5, 5, 64)          8256      
_________________________________________________________________
flatten (Flatten)            (None, 1600)              0         
_________________________________________________________________
dense (Dense)                (None, 100)               160100    
_________________________________________________________________
dense_1 (Dense)              (None, 1)                 101       
=================================================================
Total params: 168,617
Trainable params: 168,617
Non-trainable params: 0
_________________________________________________________________
None
