800000/800000 - 37s - loss: 2.0497e-05 - mae: 0.0031 - mse: 2.0497e-05
[2.0496849840847063e-05, 0.003126615, 2.0496836e-05]


200000/200000 - 9s - loss: 2.0821e-05 - mae: 0.0031 - mse: 2.0821e-05
[2.082068466814235e-05, 0.003147805, 2.0820666e-05]


Model: "sequential"
_________________________________________________________________
Layer (type)                 Output Shape              Param #   
=================================================================
conv2d (Conv2D)              (None, 6, 6, 32)          160       
_________________________________________________________________
conv2d_1 (Conv2D)            (None, 5, 5, 64)          8256      
_________________________________________________________________
flatten (Flatten)            (None, 1600)              0         
_________________________________________________________________
dense (Dense)                (None, 100)               160100    
_________________________________________________________________
dense_1 (Dense)              (None, 1)                 101       
=================================================================
Total params: 168,617
Trainable params: 168,617
Non-trainable params: 0
_________________________________________________________________
None
