700000/700000 - 10s - loss: 1.3122e-04 - mean_absolute_error: 0.0086 - mean_squared_error: 1.3122e-04
[0.00013121921809556496, 0.008642878, 0.00013121942]


150000/150000 - 2s - loss: 1.3249e-04 - mean_absolute_error: 0.0087 - mean_squared_error: 1.3249e-04
[0.00013249214911367744, 0.00867902, 0.00013249215]


Model: "sequential"
_________________________________________________________________
Layer (type)                 Output Shape              Param #   
=================================================================
dense (Dense)                (None, 200)               10000     
_________________________________________________________________
dense_1 (Dense)              (None, 150)               30150     
_________________________________________________________________
dense_2 (Dense)              (None, 120)               18120     
_________________________________________________________________
dense_3 (Dense)              (None, 80)                9680      
_________________________________________________________________
dense_4 (Dense)              (None, 50)                4050      
_________________________________________________________________
dense_5 (Dense)              (None, 1)                 51        
=================================================================
Total params: 72,051
Trainable params: 72,051
Non-trainable params: 0
_________________________________________________________________
None
