800000/800000 - 41s - loss: 0.0021 - mae: 0.0419 - mse: 0.0021
[0.0021370793258910998, 0.04192388, 0.0021370822]


200000/200000 - 9s - loss: 0.0021 - mae: 0.0420 - mse: 0.0021
[0.002137834208812565, 0.041962154, 0.0021378372]


Model: "sequential"
_________________________________________________________________
Layer (type)                 Output Shape              Param #   
=================================================================
dense (Dense)                (None, 500)               25000     
_________________________________________________________________
dropout (Dropout)            (None, 500)               0         
_________________________________________________________________
dense_1 (Dense)              (None, 200)               100200    
_________________________________________________________________
dropout_1 (Dropout)          (None, 200)               0         
_________________________________________________________________
dense_2 (Dense)              (None, 100)               20100     
_________________________________________________________________
dropout_2 (Dropout)          (None, 100)               0         
_________________________________________________________________
dense_3 (Dense)              (None, 1)                 101       
=================================================================
Total params: 145,401
Trainable params: 145,401
Non-trainable params: 0
_________________________________________________________________
None
