800000/800000 - 15s - loss: 7.8190e-05 - mae: 0.0066 - mse: 7.8190e-05
[7.818991705433291e-05, 0.006558726, 7.8189776e-05]


200000/200000 - 4s - loss: 7.8619e-05 - mae: 0.0066 - mse: 7.8619e-05
[7.861890985775972e-05, 0.0065859654, 7.8618876e-05]


Model: "sequential"
_________________________________________________________________
Layer (type)                 Output Shape              Param #   
=================================================================
dense (Dense)                (None, 500)               25000     
_________________________________________________________________
dropout (Dropout)            (None, 500)               0         
_________________________________________________________________
dense_1 (Dense)              (None, 200)               100200    
_________________________________________________________________
dropout_1 (Dropout)          (None, 200)               0         
_________________________________________________________________
dense_2 (Dense)              (None, 100)               20100     
_________________________________________________________________
dropout_2 (Dropout)          (None, 100)               0         
_________________________________________________________________
dense_3 (Dense)              (None, 1)                 101       
=================================================================
Total params: 145,401
Trainable params: 145,401
Non-trainable params: 0
_________________________________________________________________
None
