1400000/1400000 - 22s - loss: 2.3414e-04 - mae: 0.0102 - mse: 2.3414e-04
[0.00023414121600932308, 0.010207814, 0.00023414119]


300000/300000 - 5s - loss: 2.3491e-04 - mae: 0.0102 - mse: 2.3491e-04
[0.00023491097730739664, 0.010236497, 0.00023491179]


Model: "sequential"
_________________________________________________________________
Layer (type)                 Output Shape              Param #   
=================================================================
dense (Dense)                (None, 100)               5000      
_________________________________________________________________
dense_1 (Dense)              (None, 90)                9090      
_________________________________________________________________
dense_2 (Dense)              (None, 80)                7280      
_________________________________________________________________
dense_3 (Dense)              (None, 50)                4050      
_________________________________________________________________
dense_4 (Dense)              (None, 1)                 51        
=================================================================
Total params: 25,471
Trainable params: 25,471
Non-trainable params: 0
_________________________________________________________________
None
