699796/699796 - 143s - loss: 3.4568e-05 - mean_absolute_error: 0.0200 - mean_squared_error: 9.9083e-04
[3.45679393882819e-05, 0.020043842, 0.0009908349]


149955/149955 - 30s - loss: 3.5036e-05 - mean_absolute_error: 0.0200 - mean_squared_error: 9.8947e-04
[3.503622924639326e-05, 0.020021861, 0.000989471]


Model: "sequential"
_________________________________________________________________
Layer (type)                 Output Shape              Param #   
=================================================================
dense (Dense)                (None, 200)               10000     
_________________________________________________________________
dense_1 (Dense)              (None, 500)               100500    
_________________________________________________________________
dense_2 (Dense)              (None, 1000)              501000    
_________________________________________________________________
dense_3 (Dense)              (None, 500)               500500    
_________________________________________________________________
dense_4 (Dense)              (None, 150)               75150     
_________________________________________________________________
dense_5 (Dense)              (None, 1)                 151       
=================================================================
Total params: 1,187,301
Trainable params: 1,187,301
Non-trainable params: 0
_________________________________________________________________
None
