797091/797091 - 30s - loss: 1.0253e-05 - mae: 0.0025 - mse: 1.0253e-05
[1.0252542437764795e-05, 0.0025087462, 1.0252526e-05]


199272/199272 - 7s - loss: 1.0350e-05 - mae: 0.0025 - mse: 1.0350e-05
[1.034977969377938e-05, 0.0025185572, 1.0349797e-05]


Model: "sequential"
_________________________________________________________________
Layer (type)                 Output Shape              Param #   
=================================================================
conv2d (Conv2D)              (None, 4, 4, 64)          320       
_________________________________________________________________
conv2d_1 (Conv2D)            (None, 3, 3, 128)         32896     
_________________________________________________________________
flatten (Flatten)            (None, 1152)              0         
_________________________________________________________________
dense (Dense)                (None, 100)               115300    
_________________________________________________________________
dense_1 (Dense)              (None, 1)                 101       
=================================================================
Total params: 148,617
Trainable params: 148,617
Non-trainable params: 0
_________________________________________________________________
None
