43731/43731 - 64s - loss: 6.1058e-04 - mae: 0.0164 - mse: 6.1058e-04
[0.000610584975220263, 0.016357682645320892, 0.000610584975220263]


9371/9371 - 13s - loss: 6.1794e-04 - mae: 0.0164 - mse: 6.1794e-04
[0.0006179360789246857, 0.01644033007323742, 0.0006179360789246857]


Model: "sequential"
_________________________________________________________________
Layer (type)                 Output Shape              Param #   
=================================================================
dense (Dense)                (None, 200)               10000     
_________________________________________________________________
dense_1 (Dense)              (None, 200)               40200     
_________________________________________________________________
dense_2 (Dense)              (None, 200)               40200     
_________________________________________________________________
dense_3 (Dense)              (None, 200)               40200     
_________________________________________________________________
dense_4 (Dense)              (None, 200)               40200     
_________________________________________________________________
dense_5 (Dense)              (None, 1)                 201       
=================================================================
Total params: 171,001
Trainable params: 171,001
Non-trainable params: 0
_________________________________________________________________
None
