800000/800000 - 25s - loss: 5.8165e-05 - mae: 0.0053 - mse: 5.8165e-05
[5.816534174227854e-05, 0.0053427704, 5.816515e-05]


200000/200000 - 6s - loss: 5.8263e-05 - mae: 0.0054 - mse: 5.8263e-05
[5.82633937112405e-05, 0.0053559863, 5.826335e-05]


Model: "sequential"
_________________________________________________________________
Layer (type)                 Output Shape              Param #   
=================================================================
dense (Dense)                (None, 500)               25000     
_________________________________________________________________
dropout (Dropout)            (None, 500)               0         
_________________________________________________________________
dense_1 (Dense)              (None, 200)               100200    
_________________________________________________________________
dropout_1 (Dropout)          (None, 200)               0         
_________________________________________________________________
dense_2 (Dense)              (None, 100)               20100     
_________________________________________________________________
dropout_2 (Dropout)          (None, 100)               0         
_________________________________________________________________
dense_3 (Dense)              (None, 1)                 101       
=================================================================
Total params: 145,401
Trainable params: 145,401
Non-trainable params: 0
_________________________________________________________________
None
