43731/43731 - 76s - loss: 6.0984e-04 - mae: 0.0163 - mse: 6.0984e-04
[0.0006098357262089849, 0.016279317438602448, 0.0006098357262089849]


9371/9371 - 16s - loss: 6.1793e-04 - mae: 0.0164 - mse: 6.1793e-04
[0.0006179306074045599, 0.016372200101614, 0.0006179306074045599]


Model: "sequential"
_________________________________________________________________
Layer (type)                 Output Shape              Param #   
=================================================================
dense (Dense)                (None, 200)               10000     
_________________________________________________________________
dense_1 (Dense)              (None, 200)               40200     
_________________________________________________________________
dense_2 (Dense)              (None, 200)               40200     
_________________________________________________________________
dense_3 (Dense)              (None, 200)               40200     
_________________________________________________________________
dense_4 (Dense)              (None, 200)               40200     
_________________________________________________________________
dense_5 (Dense)              (None, 1)                 201       
=================================================================
Total params: 171,001
Trainable params: 171,001
Non-trainable params: 0
_________________________________________________________________
None
