300000/300000 - 5s - loss: 2.3554e-04 - mae: 0.0103 - mse: 2.3554e-04
[0.0002355378096977559, 0.010263968, 0.00023553762]


300000/300000 - 5s - loss: 2.4032e-04 - mae: 0.0104 - mse: 2.4032e-04
[0.00024031899176732015, 0.010377325, 0.00024031886]


Model: "sequential"
_________________________________________________________________
Layer (type)                 Output Shape              Param #   
=================================================================
dense (Dense)                (None, 200)               10000     
_________________________________________________________________
dense_1 (Dense)              (None, 100)               20100     
_________________________________________________________________
dense_2 (Dense)              (None, 80)                8080      
_________________________________________________________________
dense_3 (Dense)              (None, 50)                4050      
_________________________________________________________________
dense_4 (Dense)              (None, 1)                 51        
=================================================================
Total params: 42,281
Trainable params: 42,281
Non-trainable params: 0
_________________________________________________________________
None
