797091/797091 - 68s - loss: 1.2020e-04 - mae: 0.0083 - mse: 1.2020e-04
[0.00012019896002001428, 0.008319971, 0.00012019897]


199272/199272 - 12s - loss: 1.2044e-04 - mae: 0.0083 - mse: 1.2044e-04
[0.00012043721334019531, 0.008326538, 0.00012043734]


Model: "sequential"
_________________________________________________________________
Layer (type)                 Output Shape              Param #   
=================================================================
conv2d (Conv2D)              (None, 2, 2, 64)          320       
_________________________________________________________________
conv2d_1 (Conv2D)            (None, 1, 1, 128)         32896     
_________________________________________________________________
flatten (Flatten)            (None, 128)               0         
_________________________________________________________________
dense (Dense)                (None, 100)               12900     
_________________________________________________________________
dense_1 (Dense)              (None, 1)                 101       
=================================================================
Total params: 46,217
Trainable params: 46,217
Non-trainable params: 0
_________________________________________________________________
None
