699796/699796 - 23s - loss: 3.1861e-05 - mean_absolute_error: 0.0193 - mean_squared_error: 9.6044e-04
[3.186106572830053e-05, 0.019305976, 0.0009604427]


149955/149955 - 5s - loss: 3.2491e-05 - mean_absolute_error: 0.0193 - mean_squared_error: 9.6358e-04
[3.249109047071503e-05, 0.019327093, 0.0009635846]


Model: "sequential"
_________________________________________________________________
Layer (type)                 Output Shape              Param #   
=================================================================
dense (Dense)                (None, 200)               10000     
_________________________________________________________________
dense_1 (Dense)              (None, 150)               30150     
_________________________________________________________________
dense_2 (Dense)              (None, 100)               15100     
_________________________________________________________________
dense_3 (Dense)              (None, 100)               10100     
_________________________________________________________________
dense_4 (Dense)              (None, 50)                5050      
_________________________________________________________________
dense_5 (Dense)              (None, 1)                 51        
=================================================================
Total params: 70,451
Trainable params: 70,451
Non-trainable params: 0
_________________________________________________________________
None
