699699/699699 - 30s - loss: 2.7246e-04 - mean_absolute_error: 0.0117 - mean_squared_error: 2.7246e-04
[0.0002724622313633955, 0.01169586, 0.0002724621]


149935/149935 - 4s - loss: 2.7372e-04 - mean_absolute_error: 0.0117 - mean_squared_error: 2.7372e-04
[0.00027372362670933495, 0.011711272, 0.0002737237]


Model: "sequential"
_________________________________________________________________
Layer (type)                 Output Shape              Param #   
=================================================================
dense (Dense)                (None, 500)               24500     
_________________________________________________________________
dense_1 (Dense)              (None, 300)               150000    
_________________________________________________________________
dense_2 (Dense)              (None, 200)               60000     
_________________________________________________________________
dense_3 (Dense)              (None, 150)               30000     
_________________________________________________________________
dense_4 (Dense)              (None, 100)               15000     
_________________________________________________________________
dense_5 (Dense)              (None, 1)                 101       
=================================================================
Total params: 279,601
Trainable params: 279,601
Non-trainable params: 0
_________________________________________________________________
None
