797091/797091 - 17s - loss: 1.5715e-05 - mae: 0.0031 - mse: 1.5715e-05
[1.5714999133946858e-05, 0.0031056392, 1.5715077e-05]


199272/199272 - 4s - loss: 1.5846e-05 - mae: 0.0031 - mse: 1.5846e-05
[1.5845925701801846e-05, 0.0031163224, 1.5845928e-05]


Model: "sequential"
_________________________________________________________________
Layer (type)                 Output Shape              Param #   
=================================================================
conv2d (Conv2D)              (None, 4, 4, 64)          320       
_________________________________________________________________
conv2d_1 (Conv2D)            (None, 3, 3, 128)         32896     
_________________________________________________________________
flatten (Flatten)            (None, 1152)              0         
_________________________________________________________________
dense (Dense)                (None, 100)               115300    
_________________________________________________________________
dense_1 (Dense)              (None, 1)                 101       
=================================================================
Total params: 148,617
Trainable params: 148,617
Non-trainable params: 0
_________________________________________________________________
None
