800000/800000 - 11s - loss: 9.0640e-04 - mae: 0.0252 - mse: 9.0640e-04
[0.0009063965859916061, 0.025194423, 0.00090639543]


200000/200000 - 3s - loss: 9.0697e-04 - mae: 0.0252 - mse: 9.0697e-04
[0.0009069659838080406, 0.025199685, 0.000906968]


Model: "sequential"
_________________________________________________________________
Layer (type)                 Output Shape              Param #   
=================================================================
dense (Dense)                (None, 100)               5000      
_________________________________________________________________
dropout (Dropout)            (None, 100)               0         
_________________________________________________________________
dense_1 (Dense)              (None, 80)                8080      
_________________________________________________________________
dropout_1 (Dropout)          (None, 80)                0         
_________________________________________________________________
dense_2 (Dense)              (None, 1)                 81        
=================================================================
Total params: 13,161
Trainable params: 13,161
Non-trainable params: 0
_________________________________________________________________
None
