300000/300000 - 7s - loss: 2.4968e-04 - mae: 0.0110 - mse: 2.4968e-04
[0.00024967736775171945, 0.010954112, 0.00024967743]


300000/300000 - 7s - loss: 2.5329e-04 - mae: 0.0110 - mse: 2.5329e-04
[0.00025328566520397243, 0.011040195, 0.00025328543]


Model: "sequential"
_________________________________________________________________
Layer (type)                 Output Shape              Param #   
=================================================================
conv2d (Conv2D)              (None, 6, 6, 32)          160       
_________________________________________________________________
conv2d_1 (Conv2D)            (None, 5, 5, 64)          8256      
_________________________________________________________________
flatten (Flatten)            (None, 1600)              0         
_________________________________________________________________
dense (Dense)                (None, 100)               160100    
_________________________________________________________________
dense_1 (Dense)              (None, 1)                 101       
=================================================================
Total params: 168,617
Trainable params: 168,617
Non-trainable params: 0
_________________________________________________________________
None
