800000/800000 - 29s - loss: 1.7134e-04 - mae: 0.0102 - mse: 1.7134e-04
[0.00017133994045114378, 0.010248689, 0.00017133997]


200000/200000 - 7s - loss: 1.7193e-04 - mae: 0.0103 - mse: 1.7193e-04
[0.00017193145567958709, 0.010272006, 0.00017193155]


Model: "sequential"
_________________________________________________________________
Layer (type)                 Output Shape              Param #   
=================================================================
conv2d (Conv2D)              (None, 6, 6, 32)          160       
_________________________________________________________________
dropout (Dropout)            (None, 6, 6, 32)          0         
_________________________________________________________________
conv2d_1 (Conv2D)            (None, 5, 5, 64)          8256      
_________________________________________________________________
dropout_1 (Dropout)          (None, 5, 5, 64)          0         
_________________________________________________________________
flatten (Flatten)            (None, 1600)              0         
_________________________________________________________________
dense (Dense)                (None, 100)               160100    
_________________________________________________________________
dense_1 (Dense)              (None, 1)                 101       
=================================================================
Total params: 168,617
Trainable params: 168,617
Non-trainable params: 0
_________________________________________________________________
None
