699796/699796 - 20s - loss: 3.2567e-05 - mean_absolute_error: 0.0196 - mean_squared_error: 9.8642e-04
[3.256738658144116e-05, 0.01961938, 0.0009864157]


149955/149955 - 4s - loss: 3.3359e-05 - mean_absolute_error: 0.0196 - mean_squared_error: 9.8919e-04
[3.335900510036451e-05, 0.019635245, 0.0009891908]


Model: "sequential"
_________________________________________________________________
Layer (type)                 Output Shape              Param #   
=================================================================
dense (Dense)                (None, 200)               10000     
_________________________________________________________________
dense_1 (Dense)              (None, 150)               30150     
_________________________________________________________________
dense_2 (Dense)              (None, 100)               15100     
_________________________________________________________________
dense_3 (Dense)              (None, 100)               10100     
_________________________________________________________________
dense_4 (Dense)              (None, 50)                5050      
_________________________________________________________________
dense_5 (Dense)              (None, 1)                 51        
=================================================================
Total params: 70,451
Trainable params: 70,451
Non-trainable params: 0
_________________________________________________________________
None
