699693/699693 - 29s - loss: 3.7333e-05 - mean_absolute_error: 0.0153 - mean_squared_error: 4.7832e-04
[3.733265162400752e-05, 0.015264171, 0.00047832314]


149934/149934 - 6s - loss: 3.8560e-05 - mean_absolute_error: 0.0154 - mean_squared_error: 4.8683e-04
[3.855980670332499e-05, 0.0154064195, 0.0004868275]


Model: "sequential"
_________________________________________________________________
Layer (type)                 Output Shape              Param #   
=================================================================
dense (Dense)                (None, 200)               19800     
_________________________________________________________________
dense_1 (Dense)              (None, 180)               36180     
_________________________________________________________________
dense_2 (Dense)              (None, 150)               27150     
_________________________________________________________________
dense_3 (Dense)              (None, 120)               18120     
_________________________________________________________________
dense_4 (Dense)              (None, 100)               12100     
_________________________________________________________________
dense_5 (Dense)              (None, 1)                 101       
=================================================================
Total params: 113,451
Trainable params: 113,451
Non-trainable params: 0
_________________________________________________________________
None
