1594278/1594278 - 33s - loss: 2.0211e-04 - mae: 0.0090 - mse: 2.0211e-04
[0.00020211113539989417, 0.009043166, 0.0002021103]


398569/398569 - 8s - loss: 2.0533e-04 - mae: 0.0091 - mse: 2.0532e-04
[0.00020532504276072426, 0.009096295, 0.00020532488]


Model: "sequential"
_________________________________________________________________
Layer (type)                 Output Shape              Param #   
=================================================================
conv2d (Conv2D)              (None, 4, 4, 64)          320       
_________________________________________________________________
conv2d_1 (Conv2D)            (None, 3, 3, 128)         32896     
_________________________________________________________________
flatten (Flatten)            (None, 1152)              0         
_________________________________________________________________
dense (Dense)                (None, 100)               115300    
_________________________________________________________________
dense_1 (Dense)              (None, 1)                 101       
=================================================================
Total params: 148,617
Trainable params: 148,617
Non-trainable params: 0
_________________________________________________________________
None
