800000/800000 - 45s - loss: 8.3545e-05 - mae: 0.0068 - mse: 8.3545e-05
[8.354455544620578e-05, 0.0068200408, 8.354462e-05]


200000/200000 - 11s - loss: 8.3477e-05 - mae: 0.0068 - mse: 8.3477e-05
[8.347710401343647e-05, 0.0068205358, 8.347707e-05]


Model: "sequential"
_________________________________________________________________
Layer (type)                 Output Shape              Param #   
=================================================================
dense (Dense)                (None, 100)               5000      
_________________________________________________________________
dropout (Dropout)            (None, 100)               0         
_________________________________________________________________
dense_1 (Dense)              (None, 80)                8080      
_________________________________________________________________
dropout_1 (Dropout)          (None, 80)                0         
_________________________________________________________________
dense_2 (Dense)              (None, 50)                4050      
_________________________________________________________________
dropout_2 (Dropout)          (None, 50)                0         
_________________________________________________________________
dense_3 (Dense)              (None, 1)                 51        
=================================================================
Total params: 17,181
Trainable params: 17,181
Non-trainable params: 0
_________________________________________________________________
None
