1594278/1594278 - 23s - loss: 1.9393e-04 - mae: 0.0085 - mse: 1.9393e-04
[0.0001939254670307804, 0.008539519, 0.00019392553]


398569/398569 - 6s - loss: 1.9721e-04 - mae: 0.0086 - mse: 1.9721e-04
[0.00019720862094170757, 0.008589324, 0.00019720885]


Model: "sequential"
_________________________________________________________________
Layer (type)                 Output Shape              Param #   
=================================================================
dense (Dense)                (None, 75)                1950      
_________________________________________________________________
dense_1 (Dense)              (None, 150)               11400     
_________________________________________________________________
dense_2 (Dense)              (None, 100)               15100     
_________________________________________________________________
dense_3 (Dense)              (None, 50)                5050      
_________________________________________________________________
dense_4 (Dense)              (None, 1)                 51        
=================================================================
Total params: 33,551
Trainable params: 33,551
Non-trainable params: 0
_________________________________________________________________
None
