300000/300000 - 26s - loss: 2.5867e-04 - mae: 0.0115 - mse: 2.5867e-04
[0.0002586693828176552, 0.0115257045, 0.00025866966]


300000/300000 - 26s - loss: 2.6291e-04 - mae: 0.0116 - mse: 2.6291e-04
[0.00026291279362048955, 0.0116130235, 0.0002629126]


Model: "sequential"
_________________________________________________________________
Layer (type)                 Output Shape              Param #   
=================================================================
dense (Dense)                (None, 1000)              50000     
_________________________________________________________________
dense_1 (Dense)              (None, 1000)              1001000   
_________________________________________________________________
dense_2 (Dense)              (None, 500)               500500    
_________________________________________________________________
dense_3 (Dense)              (None, 250)               125250    
_________________________________________________________________
dense_4 (Dense)              (None, 1)                 251       
=================================================================
Total params: 1,677,001
Trainable params: 1,677,001
Non-trainable params: 0
_________________________________________________________________
None
