800000/800000 - 29s - loss: 6.6289e-05 - mae: 0.0059 - mse: 6.6289e-05
[6.628892527325661e-05, 0.0059277434, 6.62888e-05]


200000/200000 - 7s - loss: 6.6295e-05 - mae: 0.0059 - mse: 6.6295e-05
[6.629508032172453e-05, 0.005932388, 6.629505e-05]


Model: "sequential"
_________________________________________________________________
Layer (type)                 Output Shape              Param #   
=================================================================
dense (Dense)                (None, 500)               25000     
_________________________________________________________________
dropout (Dropout)            (None, 500)               0         
_________________________________________________________________
dense_1 (Dense)              (None, 200)               100200    
_________________________________________________________________
dropout_1 (Dropout)          (None, 200)               0         
_________________________________________________________________
dense_2 (Dense)              (None, 100)               20100     
_________________________________________________________________
dropout_2 (Dropout)          (None, 100)               0         
_________________________________________________________________
dense_3 (Dense)              (None, 1)                 101       
=================================================================
Total params: 145,401
Trainable params: 145,401
Non-trainable params: 0
_________________________________________________________________
None
