21869/21869 - 45s - loss: 7.0598e-04 - mae: 0.0183 - mse: 7.0598e-04
[0.0007059808121994138, 0.018273169174790382, 0.0007059808121994138]


4687/4687 - 10s - loss: 7.3239e-04 - mae: 0.0186 - mse: 7.3239e-04
[0.0007323924219235778, 0.018574772402644157, 0.0007323924219235778]


Model: "sequential"
_________________________________________________________________
Layer (type)                 Output Shape              Param #   
=================================================================
dense (Dense)                (None, 200)               10200     
_________________________________________________________________
dense_1 (Dense)              (None, 200)               40200     
_________________________________________________________________
dense_2 (Dense)              (None, 200)               40200     
_________________________________________________________________
dense_3 (Dense)              (None, 200)               40200     
_________________________________________________________________
dense_4 (Dense)              (None, 200)               40200     
_________________________________________________________________
dense_5 (Dense)              (None, 1)                 201       
=================================================================
Total params: 171,201
Trainable params: 171,201
Non-trainable params: 0
_________________________________________________________________
None
