699675/699675 - 40s - loss: 4.3585e-05 - mean_absolute_error: 0.0175 - mean_squared_error: 6.0378e-04
[4.358532624568326e-05, 0.017501555, 0.0006037844]


149930/149930 - 9s - loss: 4.4275e-05 - mean_absolute_error: 0.0177 - mean_squared_error: 6.1564e-04
[4.427507624010872e-05, 0.017660739, 0.00061563955]


Model: "sequential"
_________________________________________________________________
Layer (type)                 Output Shape              Param #   
=================================================================
dense (Dense)                (None, 200)               19800     
_________________________________________________________________
dense_1 (Dense)              (None, 180)               36180     
_________________________________________________________________
dense_2 (Dense)              (None, 150)               27150     
_________________________________________________________________
dense_3 (Dense)              (None, 120)               18120     
_________________________________________________________________
dense_4 (Dense)              (None, 100)               12100     
_________________________________________________________________
dense_5 (Dense)              (None, 1)                 101       
=================================================================
Total params: 113,451
Trainable params: 113,451
Non-trainable params: 0
_________________________________________________________________
None
