800000/800000 - 67s - loss: 1.0326e-04 - mae: 0.0076 - mse: 1.0326e-04
[0.00010326266506883258, 0.0076066414, 0.000103262726]


200000/200000 - 17s - loss: 1.0316e-04 - mae: 0.0076 - mse: 1.0316e-04
[0.00010316249991679797, 0.0076077515, 0.000103162514]


Model: "sequential"
_________________________________________________________________
Layer (type)                 Output Shape              Param #   
=================================================================
conv2d (Conv2D)              (None, 6, 6, 32)          160       
_________________________________________________________________
dropout (Dropout)            (None, 6, 6, 32)          0         
_________________________________________________________________
flatten (Flatten)            (None, 1152)              0         
_________________________________________________________________
dense (Dense)                (None, 100)               115300    
_________________________________________________________________
dense_1 (Dense)              (None, 1)                 101       
=================================================================
Total params: 115,561
Trainable params: 115,561
Non-trainable params: 0
_________________________________________________________________
None
