150000/150000 - 4s - loss: 5.1672e-05 - mae: 0.0052 - mse: 5.1672e-05
[5.167150567790183e-05, 0.005218318, 5.167158e-05]


150000/150000 - 4s - loss: 5.3097e-05 - mae: 0.0053 - mse: 5.3097e-05
[5.309663959778845e-05, 0.0052758735, 5.3096588e-05]


Model: "sequential"
_________________________________________________________________
Layer (type)                 Output Shape              Param #   
=================================================================
dense (Dense)                (None, 200)               10000     
_________________________________________________________________
dense_1 (Dense)              (None, 200)               40200     
_________________________________________________________________
dense_2 (Dense)              (None, 200)               40200     
_________________________________________________________________
dense_3 (Dense)              (None, 200)               40200     
_________________________________________________________________
dense_4 (Dense)              (None, 200)               40200     
_________________________________________________________________
dense_5 (Dense)              (None, 200)               40200     
_________________________________________________________________
dense_6 (Dense)              (None, 200)               40200     
_________________________________________________________________
dense_7 (Dense)              (None, 1)                 201       
=================================================================
Total params: 251,401
Trainable params: 251,401
Non-trainable params: 0
_________________________________________________________________
None
