800000/800000 - 28s - loss: 1.9891e-05 - mae: 0.0031 - mse: 1.9891e-05
[1.989140826561197e-05, 0.0030673868, 1.9891417e-05]


200000/200000 - 7s - loss: 2.0331e-05 - mae: 0.0031 - mse: 2.0331e-05
[2.0331437996428578e-05, 0.0030951023, 2.0331394e-05]


Model: "sequential"
_________________________________________________________________
Layer (type)                 Output Shape              Param #   
=================================================================
conv2d (Conv2D)              (None, 6, 6, 32)          288       
_________________________________________________________________
conv2d_1 (Conv2D)            (None, 5, 5, 64)          8256      
_________________________________________________________________
flatten (Flatten)            (None, 1600)              0         
_________________________________________________________________
dense (Dense)                (None, 100)               160100    
_________________________________________________________________
dense_1 (Dense)              (None, 1)                 101       
=================================================================
Total params: 168,745
Trainable params: 168,745
Non-trainable params: 0
_________________________________________________________________
None
