699796/699796 - 11s - loss: 3.0974e-05 - mean_absolute_error: 0.0190 - mean_squared_error: 9.4625e-04
[3.097362208283737e-05, 0.01904929, 0.00094625214]


149955/149955 - 2s - loss: 3.1720e-05 - mean_absolute_error: 0.0191 - mean_squared_error: 9.4947e-04
[3.172031134006058e-05, 0.019076435, 0.0009494736]


Model: "sequential"
_________________________________________________________________
Layer (type)                 Output Shape              Param #   
=================================================================
dense (Dense)                (None, 200)               10000     
_________________________________________________________________
dense_1 (Dense)              (None, 150)               30150     
_________________________________________________________________
dense_2 (Dense)              (None, 100)               15100     
_________________________________________________________________
dense_3 (Dense)              (None, 100)               10100     
_________________________________________________________________
dense_4 (Dense)              (None, 50)                5050      
_________________________________________________________________
dense_5 (Dense)              (None, 1)                 51        
=================================================================
Total params: 70,451
Trainable params: 70,451
Non-trainable params: 0
_________________________________________________________________
None
