699796/699796 - 116s - loss: 3.3148e-05 - mean_absolute_error: 0.0195 - mean_squared_error: 9.8343e-04
[3.314756837459301e-05, 0.019492965, 0.000983432]


149955/149955 - 25s - loss: 3.3994e-05 - mean_absolute_error: 0.0195 - mean_squared_error: 9.8521e-04
[3.399417370253751e-05, 0.019510062, 0.0009852148]


Model: "sequential"
_________________________________________________________________
Layer (type)                 Output Shape              Param #   
=================================================================
dense (Dense)                (None, 200)               10000     
_________________________________________________________________
dense_1 (Dense)              (None, 500)               100500    
_________________________________________________________________
dense_2 (Dense)              (None, 1000)              501000    
_________________________________________________________________
dense_3 (Dense)              (None, 500)               500500    
_________________________________________________________________
dense_4 (Dense)              (None, 150)               75150     
_________________________________________________________________
dense_5 (Dense)              (None, 1)                 151       
=================================================================
Total params: 1,187,301
Trainable params: 1,187,301
Non-trainable params: 0
_________________________________________________________________
None
