2099427/2099427 - 51s - loss: 4.8962e-05 - mae: 0.0182 - mse: 8.0710e-04
[4.896160837101357e-05, 0.018194, 0.0008070995]


449876/449876 - 11s - loss: 4.9570e-05 - mae: 0.0183 - mse: 8.1219e-04
[4.957036452421106e-05, 0.018250719, 0.0008121925]


Model: "sequential"
_________________________________________________________________
Layer (type)                 Output Shape              Param #   
=================================================================
dense (Dense)                (None, 300)               15000     
_________________________________________________________________
dense_1 (Dense)              (None, 200)               60200     
_________________________________________________________________
dense_2 (Dense)              (None, 150)               30150     
_________________________________________________________________
dense_3 (Dense)              (None, 100)               15100     
_________________________________________________________________
dense_4 (Dense)              (None, 1)                 101       
=================================================================
Total params: 120,551
Trainable params: 120,551
Non-trainable params: 0
_________________________________________________________________
None
