800000/800000 - 38s - loss: 1.0219e-04 - mae: 0.0080 - mse: 1.0219e-04
[0.00010218891540891491, 0.007984692, 0.000102188336]


200000/200000 - 7s - loss: 1.0257e-04 - mae: 0.0080 - mse: 1.0257e-04
[0.00010257494755118386, 0.0080030225, 0.000102574835]


Model: "sequential"
_________________________________________________________________
Layer (type)                 Output Shape              Param #   
=================================================================
dense (Dense)                (None, 500)               25000     
_________________________________________________________________
dropout (Dropout)            (None, 500)               0         
_________________________________________________________________
dense_1 (Dense)              (None, 200)               100200    
_________________________________________________________________
dropout_1 (Dropout)          (None, 200)               0         
_________________________________________________________________
dense_2 (Dense)              (None, 100)               20100     
_________________________________________________________________
dropout_2 (Dropout)          (None, 100)               0         
_________________________________________________________________
dense_3 (Dense)              (None, 1)                 101       
=================================================================
Total params: 145,401
Trainable params: 145,401
Non-trainable params: 0
_________________________________________________________________
None
