1594227/1594227 - 54s - loss: 1.7590e-04 - mae: 0.0077 - mse: 1.7590e-04
[0.00017589898987769177, 0.007655166, 0.00017589885]


398556/398556 - 13s - loss: 1.7857e-04 - mae: 0.0077 - mse: 1.7857e-04
[0.00017856987153871113, 0.0076996917, 0.00017857016]


Model: "sequential"
_________________________________________________________________
Layer (type)                 Output Shape              Param #   
=================================================================
dense (Dense)                (None, 70)                1820      
_________________________________________________________________
dense_1 (Dense)              (None, 150)               10650     
_________________________________________________________________
dense_2 (Dense)              (None, 300)               45300     
_________________________________________________________________
dense_3 (Dense)              (None, 200)               60200     
_________________________________________________________________
dense_4 (Dense)              (None, 100)               20100     
_________________________________________________________________
dense_5 (Dense)              (None, 50)                5050      
_________________________________________________________________
dense_6 (Dense)              (None, 1)                 51        
=================================================================
Total params: 143,171
Trainable params: 143,171
Non-trainable params: 0
_________________________________________________________________
None
