800000/800000 - 18s - loss: 7.0265e-05 - mae: 0.0064 - mse: 7.0265e-05
[7.026471491019038e-05, 0.006401762, 7.026452e-05]


200000/200000 - 4s - loss: 7.0734e-05 - mae: 0.0064 - mse: 7.0734e-05
[7.073421874258202e-05, 0.0064266417, 7.073433e-05]


Model: "sequential"
_________________________________________________________________
Layer (type)                 Output Shape              Param #   
=================================================================
conv2d (Conv2D)              (None, 6, 6, 32)          160       
_________________________________________________________________
dropout (Dropout)            (None, 6, 6, 32)          0         
_________________________________________________________________
conv2d_1 (Conv2D)            (None, 5, 5, 64)          8256      
_________________________________________________________________
dropout_1 (Dropout)          (None, 5, 5, 64)          0         
_________________________________________________________________
flatten (Flatten)            (None, 1600)              0         
_________________________________________________________________
dense (Dense)                (None, 100)               160100    
_________________________________________________________________
dense_1 (Dense)              (None, 1)                 101       
=================================================================
Total params: 168,617
Trainable params: 168,617
Non-trainable params: 0
_________________________________________________________________
None
