797169/797169 - 178s - loss: 3.5772e-05 - mae: 0.0043 - mse: 3.5772e-05
[3.577195372152944e-05, 0.004341397, 3.5771878e-05]


199292/199292 - 38s - loss: 3.5665e-05 - mae: 0.0043 - mse: 3.5665e-05
[3.566485642558641e-05, 0.0043293615, 3.5664878e-05]


Model: "sequential"
_________________________________________________________________
Layer (type)                 Output Shape              Param #   
=================================================================
conv2d (Conv2D)              (None, 4, 4, 32)          160       
_________________________________________________________________
conv2d_1 (Conv2D)            (None, 3, 3, 64)          8256      
_________________________________________________________________
flatten (Flatten)            (None, 576)               0         
_________________________________________________________________
dense (Dense)                (None, 100)               57700     
_________________________________________________________________
dense_1 (Dense)              (None, 1)                 101       
=================================================================
Total params: 66,217
Trainable params: 66,217
Non-trainable params: 0
_________________________________________________________________
None
