800000/800000 - 41s - loss: 2.4216e-04 - mae: 0.0129 - mse: 2.4216e-04
[0.00024215670462348498, 0.012875459, 0.00024215791]


200000/200000 - 9s - loss: 2.4194e-04 - mae: 0.0129 - mse: 2.4194e-04
[0.0002419374962162692, 0.012873049, 0.00024193757]


Model: "sequential"
_________________________________________________________________
Layer (type)                 Output Shape              Param #   
=================================================================
dense (Dense)                (None, 500)               25000     
_________________________________________________________________
dropout (Dropout)            (None, 500)               0         
_________________________________________________________________
dense_1 (Dense)              (None, 200)               100200    
_________________________________________________________________
dropout_1 (Dropout)          (None, 200)               0         
_________________________________________________________________
dense_2 (Dense)              (None, 100)               20100     
_________________________________________________________________
dropout_2 (Dropout)          (None, 100)               0         
_________________________________________________________________
dense_3 (Dense)              (None, 1)                 101       
=================================================================
Total params: 145,401
Trainable params: 145,401
Non-trainable params: 0
_________________________________________________________________
None
