800000/800000 - 37s - loss: 6.8632e-05 - mae: 0.0058 - mse: 6.8632e-05
[6.863164192141994e-05, 0.005818022, 6.8631685e-05]


200000/200000 - 6s - loss: 6.8740e-05 - mae: 0.0058 - mse: 6.8740e-05
[6.874020299292169e-05, 0.00583195, 6.8740206e-05]


Model: "sequential"
_________________________________________________________________
Layer (type)                 Output Shape              Param #   
=================================================================
dense (Dense)                (None, 500)               25000     
_________________________________________________________________
dropout (Dropout)            (None, 500)               0         
_________________________________________________________________
dense_1 (Dense)              (None, 200)               100200    
_________________________________________________________________
dropout_1 (Dropout)          (None, 200)               0         
_________________________________________________________________
dense_2 (Dense)              (None, 100)               20100     
_________________________________________________________________
dropout_2 (Dropout)          (None, 100)               0         
_________________________________________________________________
dense_3 (Dense)              (None, 1)                 101       
=================================================================
Total params: 145,401
Trainable params: 145,401
Non-trainable params: 0
_________________________________________________________________
None
