797169/797169 - 95s - loss: 3.2410e-05 - mae: 0.0040 - mse: 3.2410e-05
[3.241001078095796e-05, 0.004021137, 3.2409946e-05]


199292/199292 - 21s - loss: 3.2331e-05 - mae: 0.0040 - mse: 3.2331e-05
[3.2330565220353415e-05, 0.0040096175, 3.2330605e-05]


Model: "sequential"
_________________________________________________________________
Layer (type)                 Output Shape              Param #   
=================================================================
conv2d (Conv2D)              (None, 4, 4, 32)          288       
_________________________________________________________________
conv2d_1 (Conv2D)            (None, 3, 3, 64)          8256      
_________________________________________________________________
flatten (Flatten)            (None, 576)               0         
_________________________________________________________________
dense (Dense)                (None, 100)               57700     
_________________________________________________________________
dense_1 (Dense)              (None, 1)                 101       
=================================================================
Total params: 66,345
Trainable params: 66,345
Non-trainable params: 0
_________________________________________________________________
None
