1594227/1594227 - 52s - loss: 1.7083e-04 - mae: 0.0071 - mse: 1.7083e-04
[0.0001708271914355029, 0.007111496, 0.00017082703]


398556/398556 - 11s - loss: 1.7368e-04 - mae: 0.0072 - mse: 1.7368e-04
[0.00017367888677507405, 0.0071580983, 0.00017367887]


Model: "sequential"
_________________________________________________________________
Layer (type)                 Output Shape              Param #   
=================================================================
dense (Dense)                (None, 70)                1820      
_________________________________________________________________
dense_1 (Dense)              (None, 150)               10650     
_________________________________________________________________
dense_2 (Dense)              (None, 300)               45300     
_________________________________________________________________
dense_3 (Dense)              (None, 200)               60200     
_________________________________________________________________
dense_4 (Dense)              (None, 100)               20100     
_________________________________________________________________
dense_5 (Dense)              (None, 50)                5050      
_________________________________________________________________
dense_6 (Dense)              (None, 1)                 51        
=================================================================
Total params: 143,171
Trainable params: 143,171
Non-trainable params: 0
_________________________________________________________________
None
