797091/797091 - 12s - loss: 1.2119e-04 - mae: 0.0084 - mse: 1.2119e-04
[0.00012118527528803439, 0.008430398, 0.00012118543]


199272/199272 - 3s - loss: 1.2105e-04 - mae: 0.0084 - mse: 1.2105e-04
[0.00012105330635453342, 0.008406976, 0.00012105323]


Model: "sequential"
_________________________________________________________________
Layer (type)                 Output Shape              Param #   
=================================================================
conv2d (Conv2D)              (None, 2, 2, 64)          320       
_________________________________________________________________
conv2d_1 (Conv2D)            (None, 1, 1, 64)          16448     
_________________________________________________________________
flatten (Flatten)            (None, 64)                0         
_________________________________________________________________
dense (Dense)                (None, 128)               8320      
_________________________________________________________________
dense_1 (Dense)              (None, 16)                2064      
_________________________________________________________________
dense_2 (Dense)              (None, 1)                 17        
=================================================================
Total params: 27,169
Trainable params: 27,169
Non-trainable params: 0
_________________________________________________________________
None
