43731/43731 - 63s - loss: 6.0849e-04 - mae: 0.0163 - mse: 6.0849e-04
[0.0006084872293286026, 0.016271522268652916, 0.0006084872293286026]


9371/9371 - 12s - loss: 6.1610e-04 - mae: 0.0164 - mse: 6.1610e-04
[0.00061609543627128, 0.016357844695448875, 0.00061609543627128]


Model: "sequential"
_________________________________________________________________
Layer (type)                 Output Shape              Param #   
=================================================================
dense (Dense)                (None, 200)               10000     
_________________________________________________________________
dense_1 (Dense)              (None, 200)               40200     
_________________________________________________________________
dense_2 (Dense)              (None, 200)               40200     
_________________________________________________________________
dense_3 (Dense)              (None, 200)               40200     
_________________________________________________________________
dense_4 (Dense)              (None, 200)               40200     
_________________________________________________________________
dense_5 (Dense)              (None, 1)                 201       
=================================================================
Total params: 171,001
Trainable params: 171,001
Non-trainable params: 0
_________________________________________________________________
None
