43731/43731 - 39s - loss: 6.0815e-04 - mae: 0.0162 - mse: 6.0815e-04
[0.0006081517203710973, 0.016222435981035233, 0.0006081517203710973]


9371/9371 - 8s - loss: 6.1653e-04 - mae: 0.0163 - mse: 6.1653e-04
[0.0006165310041978955, 0.016322115436196327, 0.0006165310041978955]


Model: "sequential"
_________________________________________________________________
Layer (type)                 Output Shape              Param #   
=================================================================
dense (Dense)                (None, 200)               10000     
_________________________________________________________________
dense_1 (Dense)              (None, 200)               40200     
_________________________________________________________________
dense_2 (Dense)              (None, 200)               40200     
_________________________________________________________________
dense_3 (Dense)              (None, 200)               40200     
_________________________________________________________________
dense_4 (Dense)              (None, 200)               40200     
_________________________________________________________________
dense_5 (Dense)              (None, 1)                 201       
=================================================================
Total params: 171,001
Trainable params: 171,001
Non-trainable params: 0
_________________________________________________________________
None
