300000/300000 - 5s - loss: 5.8664e-04 - mae: 0.0168 - mse: 5.8665e-04
[0.0005866449618238646, 0.016759917, 0.00058664556]


300000/300000 - 5s - loss: 5.8844e-04 - mae: 0.0168 - mse: 5.8844e-04
[0.0005884360161687558, 0.016776625, 0.000588437]


Model: "sequential"
_________________________________________________________________
Layer (type)                 Output Shape              Param #   
=================================================================
dense (Dense)                (None, 200)               5200      
_________________________________________________________________
dense_1 (Dense)              (None, 100)               20100     
_________________________________________________________________
dense_2 (Dense)              (None, 80)                8080      
_________________________________________________________________
dense_3 (Dense)              (None, 50)                4050      
_________________________________________________________________
dense_4 (Dense)              (None, 1)                 51        
=================================================================
Total params: 37,481
Trainable params: 37,481
Non-trainable params: 0
_________________________________________________________________
None
