150000/150000 - 4s - loss: 6.8062e-05 - mae: 0.0063 - mse: 6.8062e-05
[6.8062088265627e-05, 0.0062902695, 6.806203e-05]


150000/150000 - 4s - loss: 6.9252e-05 - mae: 0.0063 - mse: 6.9252e-05
[6.925203935281995e-05, 0.00631865, 6.9251975e-05]


Model: "sequential"
_________________________________________________________________
Layer (type)                 Output Shape              Param #   
=================================================================
dense (Dense)                (None, 200)               10000     
_________________________________________________________________
dense_1 (Dense)              (None, 200)               40200     
_________________________________________________________________
dense_2 (Dense)              (None, 200)               40200     
_________________________________________________________________
dense_3 (Dense)              (None, 200)               40200     
_________________________________________________________________
dense_4 (Dense)              (None, 200)               40200     
_________________________________________________________________
dense_5 (Dense)              (None, 200)               40200     
_________________________________________________________________
dense_6 (Dense)              (None, 200)               40200     
_________________________________________________________________
dense_7 (Dense)              (None, 1)                 201       
=================================================================
Total params: 251,401
Trainable params: 251,401
Non-trainable params: 0
_________________________________________________________________
None
