43731/43731 - 183s - loss: 6.0899e-04 - mae: 0.0163 - mse: 6.0899e-04
[0.0006089873495511711, 0.01628509722650051, 0.0006089873495511711]


9371/9371 - 31s - loss: 6.1756e-04 - mae: 0.0164 - mse: 6.1756e-04
[0.0006175553426146507, 0.016388511285185814, 0.0006175553426146507]


Model: "sequential"
_________________________________________________________________
Layer (type)                 Output Shape              Param #   
=================================================================
dense (Dense)                (None, 200)               10000     
_________________________________________________________________
dense_1 (Dense)              (None, 200)               40200     
_________________________________________________________________
dense_2 (Dense)              (None, 200)               40200     
_________________________________________________________________
dense_3 (Dense)              (None, 200)               40200     
_________________________________________________________________
dense_4 (Dense)              (None, 200)               40200     
_________________________________________________________________
dense_5 (Dense)              (None, 1)                 201       
=================================================================
Total params: 171,001
Trainable params: 171,001
Non-trainable params: 0
_________________________________________________________________
None
