2099257/2099257 - 51s - loss: 3.8442e-05 - mean_absolute_error: 0.0165 - mean_squared_error: 6.5783e-04
[3.8441840456771595e-05, 0.016519789, 0.00065783306]


449840/449840 - 10s - loss: 3.8721e-05 - mean_absolute_error: 0.0165 - mean_squared_error: 6.6003e-04
[3.8721049757457036e-05, 0.016540684, 0.0006600282]


Model: "sequential"
_________________________________________________________________
Layer (type)                 Output Shape              Param #   
=================================================================
dense (Dense)                (None, 500)               25000     
_________________________________________________________________
dense_1 (Dense)              (None, 600)               300600    
_________________________________________________________________
dense_2 (Dense)              (None, 400)               240400    
_________________________________________________________________
dense_3 (Dense)              (None, 100)               40100     
_________________________________________________________________
dense_4 (Dense)              (None, 1)                 101       
=================================================================
Total params: 606,201
Trainable params: 606,201
Non-trainable params: 0
_________________________________________________________________
None
