43731/43731 - 107s - loss: 6.0758e-04 - mae: 0.0162 - mse: 6.0758e-04
[0.0006075807614251971, 0.016233298927545547, 0.0006075807614251971]


9371/9371 - 22s - loss: 6.1448e-04 - mae: 0.0163 - mse: 6.1448e-04
[0.0006144756334833801, 0.016317175701260567, 0.0006144756334833801]


Model: "sequential"
_________________________________________________________________
Layer (type)                 Output Shape              Param #   
=================================================================
dense (Dense)                (None, 200)               10000     
_________________________________________________________________
dense_1 (Dense)              (None, 200)               40200     
_________________________________________________________________
dense_2 (Dense)              (None, 200)               40200     
_________________________________________________________________
dense_3 (Dense)              (None, 200)               40200     
_________________________________________________________________
dense_4 (Dense)              (None, 200)               40200     
_________________________________________________________________
dense_5 (Dense)              (None, 1)                 201       
=================================================================
Total params: 171,001
Trainable params: 171,001
Non-trainable params: 0
_________________________________________________________________
None
