800000/800000 - 15s - loss: 1.0781e-04 - mae: 0.0084 - mse: 1.0781e-04
[0.00010781011100989417, 0.008376175, 0.00010780986]


200000/200000 - 4s - loss: 1.0766e-04 - mae: 0.0084 - mse: 1.0766e-04
[0.00010765522088564467, 0.008366228, 0.00010765534]


Model: "sequential"
_________________________________________________________________
Layer (type)                 Output Shape              Param #   
=================================================================
dense (Dense)                (None, 500)               25000     
_________________________________________________________________
dropout (Dropout)            (None, 500)               0         
_________________________________________________________________
dense_1 (Dense)              (None, 200)               100200    
_________________________________________________________________
dropout_1 (Dropout)          (None, 200)               0         
_________________________________________________________________
dense_2 (Dense)              (None, 100)               20100     
_________________________________________________________________
dropout_2 (Dropout)          (None, 100)               0         
_________________________________________________________________
dense_3 (Dense)              (None, 1)                 101       
=================================================================
Total params: 145,401
Trainable params: 145,401
Non-trainable params: 0
_________________________________________________________________
None
