800000/800000 - 45s - loss: 3.8181e-05 - mae: 0.0046 - mse: 3.8181e-05
[3.8180759899823896e-05, 0.004573208, 3.8180744e-05]


200000/200000 - 11s - loss: 3.8327e-05 - mae: 0.0046 - mse: 3.8327e-05
[3.83268286423845e-05, 0.004575328, 3.832689e-05]


Model: "sequential"
_________________________________________________________________
Layer (type)                 Output Shape              Param #   
=================================================================
conv2d (Conv2D)              (None, 6, 6, 32)          160       
_________________________________________________________________
dropout (Dropout)            (None, 6, 6, 32)          0         
_________________________________________________________________
flatten (Flatten)            (None, 1152)              0         
_________________________________________________________________
dense (Dense)                (None, 100)               115300    
_________________________________________________________________
dense_1 (Dense)              (None, 1)                 101       
=================================================================
Total params: 115,561
Trainable params: 115,561
Non-trainable params: 0
_________________________________________________________________
None
