1594227/1594227 - 56s - loss: 1.6784e-04 - mae: 0.0074 - mse: 1.6784e-04
[0.00016783791854158383, 0.0074486015, 0.00016783767]


398556/398556 - 14s - loss: 1.7023e-04 - mae: 0.0075 - mse: 1.7023e-04
[0.0001702294023441874, 0.007492017, 0.00017022958]


Model: "sequential"
_________________________________________________________________
Layer (type)                 Output Shape              Param #   
=================================================================
conv2d (Conv2D)              (None, 4, 4, 32)          160       
_________________________________________________________________
conv2d_1 (Conv2D)            (None, 3, 3, 64)          8256      
_________________________________________________________________
flatten (Flatten)            (None, 576)               0         
_________________________________________________________________
dense (Dense)                (None, 100)               57700     
_________________________________________________________________
dense_1 (Dense)              (None, 1)                 101       
=================================================================
Total params: 66,217
Trainable params: 66,217
Non-trainable params: 0
_________________________________________________________________
None
