800000/800000 - 35s - loss: 6.9855e-05 - mae: 0.0060 - mse: 6.9855e-05
[6.985493468691857e-05, 0.0059881913, 6.985492e-05]


200000/200000 - 9s - loss: 7.0017e-05 - mae: 0.0060 - mse: 7.0017e-05
[7.001744017616147e-05, 0.006005834, 7.001736e-05]


Model: "sequential"
_________________________________________________________________
Layer (type)                 Output Shape              Param #   
=================================================================
dense (Dense)                (None, 100)               5000      
_________________________________________________________________
dropout (Dropout)            (None, 100)               0         
_________________________________________________________________
dense_1 (Dense)              (None, 80)                8080      
_________________________________________________________________
dropout_1 (Dropout)          (None, 80)                0         
_________________________________________________________________
dense_2 (Dense)              (None, 1)                 81        
=================================================================
Total params: 13,161
Trainable params: 13,161
Non-trainable params: 0
_________________________________________________________________
None
