800000/800000 - 26s - loss: 2.4607e-05 - mae: 0.0035 - mse: 2.4607e-05
[2.460730648305798e-05, 0.0034687328, 2.460731e-05]


200000/200000 - 5s - loss: 2.4837e-05 - mae: 0.0035 - mse: 2.4837e-05
[2.4836956830622513e-05, 0.0034807913, 2.48369e-05]


Model: "sequential"
_________________________________________________________________
Layer (type)                 Output Shape              Param #   
=================================================================
conv2d (Conv2D)              (None, 6, 6, 32)          160       
_________________________________________________________________
conv2d_1 (Conv2D)            (None, 5, 5, 64)          8256      
_________________________________________________________________
flatten (Flatten)            (None, 1600)              0         
_________________________________________________________________
dense (Dense)                (None, 100)               160100    
_________________________________________________________________
dense_1 (Dense)              (None, 1)                 101       
=================================================================
Total params: 168,617
Trainable params: 168,617
Non-trainable params: 0
_________________________________________________________________
None
