43731/43731 - 64s - loss: 6.0742e-04 - mae: 0.0162 - mse: 6.0742e-04
[0.0006074221455492079, 0.01621467061340809, 0.0006074221455492079]


9371/9371 - 13s - loss: 6.1496e-04 - mae: 0.0163 - mse: 6.1496e-04
[0.0006149635300971568, 0.01629999652504921, 0.0006149635300971568]


Model: "sequential"
_________________________________________________________________
Layer (type)                 Output Shape              Param #   
=================================================================
dense (Dense)                (None, 200)               10000     
_________________________________________________________________
dense_1 (Dense)              (None, 200)               40200     
_________________________________________________________________
dense_2 (Dense)              (None, 200)               40200     
_________________________________________________________________
dense_3 (Dense)              (None, 200)               40200     
_________________________________________________________________
dense_4 (Dense)              (None, 200)               40200     
_________________________________________________________________
dense_5 (Dense)              (None, 1)                 201       
=================================================================
Total params: 171,001
Trainable params: 171,001
Non-trainable params: 0
_________________________________________________________________
None
