800000/800000 - 41s - loss: 1.6783e-04 - mae: 0.0105 - mse: 1.6783e-04
[0.00016782889707639696, 0.010461801, 0.00016782945]


200000/200000 - 9s - loss: 1.6794e-04 - mae: 0.0105 - mse: 1.6794e-04
[0.00016793584189552348, 0.01045708, 0.00016793582]


Model: "sequential"
_________________________________________________________________
Layer (type)                 Output Shape              Param #   
=================================================================
dense (Dense)                (None, 500)               25000     
_________________________________________________________________
dropout (Dropout)            (None, 500)               0         
_________________________________________________________________
dense_1 (Dense)              (None, 200)               100200    
_________________________________________________________________
dropout_1 (Dropout)          (None, 200)               0         
_________________________________________________________________
dense_2 (Dense)              (None, 100)               20100     
_________________________________________________________________
dropout_2 (Dropout)          (None, 100)               0         
_________________________________________________________________
dense_3 (Dense)              (None, 1)                 101       
=================================================================
Total params: 145,401
Trainable params: 145,401
Non-trainable params: 0
_________________________________________________________________
None
