43731/43731 - 201s - loss: 6.0689e-04 - mae: 0.0161 - mse: 6.0689e-04
[0.0006068882648833096, 0.01614047773182392, 0.0006068882648833096]


9371/9371 - 17s - loss: 6.1453e-04 - mae: 0.0162 - mse: 6.1453e-04
[0.0006145269144326448, 0.01622842811048031, 0.0006145269144326448]


Model: "sequential"
_________________________________________________________________
Layer (type)                 Output Shape              Param #   
=================================================================
dense (Dense)                (None, 200)               10000     
_________________________________________________________________
dense_1 (Dense)              (None, 200)               40200     
_________________________________________________________________
dense_2 (Dense)              (None, 200)               40200     
_________________________________________________________________
dense_3 (Dense)              (None, 200)               40200     
_________________________________________________________________
dense_4 (Dense)              (None, 200)               40200     
_________________________________________________________________
dense_5 (Dense)              (None, 1)                 201       
=================================================================
Total params: 171,001
Trainable params: 171,001
Non-trainable params: 0
_________________________________________________________________
None
