699796/699796 - 107s - loss: 3.2706e-05 - mean_absolute_error: 0.0194 - mean_squared_error: 9.7493e-04
[3.270596422866385e-05, 0.019383062, 0.0009749323]


149955/149955 - 20s - loss: 3.3515e-05 - mean_absolute_error: 0.0194 - mean_squared_error: 9.7808e-04
[3.351519911990047e-05, 0.019407094, 0.0009780778]


Model: "sequential"
_________________________________________________________________
Layer (type)                 Output Shape              Param #   
=================================================================
dense (Dense)                (None, 200)               10000     
_________________________________________________________________
dense_1 (Dense)              (None, 500)               100500    
_________________________________________________________________
dense_2 (Dense)              (None, 1000)              501000    
_________________________________________________________________
dense_3 (Dense)              (None, 500)               500500    
_________________________________________________________________
dense_4 (Dense)              (None, 150)               75150     
_________________________________________________________________
dense_5 (Dense)              (None, 1)                 151       
=================================================================
Total params: 1,187,301
Trainable params: 1,187,301
Non-trainable params: 0
_________________________________________________________________
None
