800000/800000 - 18s - loss: 2.6238e-04 - mae: 0.0128 - mse: 2.6238e-04
[0.0002623804132110672, 0.012825664, 0.0002623799]


200000/200000 - 5s - loss: 2.6343e-04 - mae: 0.0129 - mse: 2.6343e-04
[0.000263427201557206, 0.012859216, 0.00026342736]


Model: "sequential"
_________________________________________________________________
Layer (type)                 Output Shape              Param #   
=================================================================
dense (Dense)                (None, 500)               25000     
_________________________________________________________________
dropout (Dropout)            (None, 500)               0         
_________________________________________________________________
dense_1 (Dense)              (None, 200)               100200    
_________________________________________________________________
dropout_1 (Dropout)          (None, 200)               0         
_________________________________________________________________
dense_2 (Dense)              (None, 100)               20100     
_________________________________________________________________
dropout_2 (Dropout)          (None, 100)               0         
_________________________________________________________________
dense_3 (Dense)              (None, 1)                 101       
=================================================================
Total params: 145,401
Trainable params: 145,401
Non-trainable params: 0
_________________________________________________________________
None
