800000/800000 - 179s - loss: 3.5222e-05 - mae: 0.0042 - mse: 3.5222e-05
[3.522249777153774e-05, 0.004197784, 3.522249e-05]


200000/200000 - 46s - loss: 3.5508e-05 - mae: 0.0042 - mse: 3.5508e-05
[3.5507793483266144e-05, 0.0042185197, 3.5507775e-05]


Model: "sequential"
_________________________________________________________________
Layer (type)                 Output Shape              Param #   
=================================================================
conv2d (Conv2D)              (None, 4, 4, 32)          160       
_________________________________________________________________
conv2d_1 (Conv2D)            (None, 3, 3, 64)          8256      
_________________________________________________________________
flatten (Flatten)            (None, 576)               0         
_________________________________________________________________
dense (Dense)                (None, 100)               57700     
_________________________________________________________________
dense_1 (Dense)              (None, 1)                 101       
=================================================================
Total params: 66,217
Trainable params: 66,217
Non-trainable params: 0
_________________________________________________________________
None
