800000/800000 - 12s - loss: 0.0016 - mae: 0.0335 - mse: 0.0016
[0.001645331713897176, 0.033498894, 0.0016453373]


200000/200000 - 3s - loss: 0.0016 - mae: 0.0335 - mse: 0.0016
[0.0016411975699942558, 0.03346609, 0.0016411965]


Model: "sequential"
_________________________________________________________________
Layer (type)                 Output Shape              Param #   
=================================================================
dense (Dense)                (None, 100)               5000      
_________________________________________________________________
dropout (Dropout)            (None, 100)               0         
_________________________________________________________________
dense_1 (Dense)              (None, 100)               10100     
_________________________________________________________________
dropout_1 (Dropout)          (None, 100)               0         
_________________________________________________________________
dense_2 (Dense)              (None, 100)               10100     
_________________________________________________________________
dropout_2 (Dropout)          (None, 100)               0         
_________________________________________________________________
dense_3 (Dense)              (None, 1)                 101       
=================================================================
Total params: 25,301
Trainable params: 25,301
Non-trainable params: 0
_________________________________________________________________
None
