1594227/1594227 - 53s - loss: 1.8850e-04 - mae: 0.0083 - mse: 1.8850e-04
[0.0001884952802904268, 0.0083001265, 0.00018849534]


398556/398556 - 13s - loss: 1.9066e-04 - mae: 0.0083 - mse: 1.9066e-04
[0.0001906562101089003, 0.008332459, 0.00019065663]


Model: "sequential"
_________________________________________________________________
Layer (type)                 Output Shape              Param #   
=================================================================
dense (Dense)                (None, 70)                1820      
_________________________________________________________________
dense_1 (Dense)              (None, 150)               10650     
_________________________________________________________________
dense_2 (Dense)              (None, 300)               45300     
_________________________________________________________________
dense_3 (Dense)              (None, 200)               60200     
_________________________________________________________________
dense_4 (Dense)              (None, 100)               20100     
_________________________________________________________________
dense_5 (Dense)              (None, 50)                5050      
_________________________________________________________________
dense_6 (Dense)              (None, 1)                 51        
=================================================================
Total params: 143,171
Trainable params: 143,171
Non-trainable params: 0
_________________________________________________________________
None
