800000/800000 - 28s - loss: 7.6079e-05 - mae: 0.0061 - mse: 7.6079e-05
[7.607920553848089e-05, 0.0061245435, 7.607942e-05]


200000/200000 - 7s - loss: 7.6281e-05 - mae: 0.0061 - mse: 7.6281e-05
[7.628074758758885e-05, 0.0061378656, 7.6280754e-05]


Model: "sequential"
_________________________________________________________________
Layer (type)                 Output Shape              Param #   
=================================================================
dense (Dense)                (None, 500)               25000     
_________________________________________________________________
dropout (Dropout)            (None, 500)               0         
_________________________________________________________________
dense_1 (Dense)              (None, 200)               100200    
_________________________________________________________________
dropout_1 (Dropout)          (None, 200)               0         
_________________________________________________________________
dense_2 (Dense)              (None, 100)               20100     
_________________________________________________________________
dropout_2 (Dropout)          (None, 100)               0         
_________________________________________________________________
dense_3 (Dense)              (None, 1)                 101       
=================================================================
Total params: 145,401
Trainable params: 145,401
Non-trainable params: 0
_________________________________________________________________
None
