699806/699806 - 14s - loss: 3.5760e-05 - mean_absolute_error: 0.0169 - mean_squared_error: 6.1944e-04
[3.576009978008917e-05, 0.016878188, 0.0006194396]


149958/149958 - 3s - loss: 3.6548e-05 - mean_absolute_error: 0.0170 - mean_squared_error: 6.2789e-04
[3.654755411566604e-05, 0.016987057, 0.000627889]


Model: "sequential"
_________________________________________________________________
Layer (type)                 Output Shape              Param #   
=================================================================
dense (Dense)                (None, 200)               19800     
_________________________________________________________________
dense_1 (Dense)              (None, 180)               36180     
_________________________________________________________________
dense_2 (Dense)              (None, 150)               27150     
_________________________________________________________________
dense_3 (Dense)              (None, 120)               18120     
_________________________________________________________________
dense_4 (Dense)              (None, 100)               12100     
_________________________________________________________________
dense_5 (Dense)              (None, 1)                 101       
=================================================================
Total params: 113,451
Trainable params: 113,451
Non-trainable params: 0
_________________________________________________________________
None
