300000/300000 - 34s - loss: 3.6059e-04 - mae: 0.0143 - mse: 3.6059e-04
[0.0003605858090411251, 0.014284911, 0.00036058607]


300000/300000 - 31s - loss: 3.6235e-04 - mae: 0.0143 - mse: 3.6235e-04
[0.00036234857496184606, 0.014323444, 0.00036234898]


Model: "sequential"
_________________________________________________________________
Layer (type)                 Output Shape              Param #   
=================================================================
dense (Dense)                (None, 1000)              50000     
_________________________________________________________________
dense_1 (Dense)              (None, 1000)              1001000   
_________________________________________________________________
dense_2 (Dense)              (None, 500)               500500    
_________________________________________________________________
dense_3 (Dense)              (None, 250)               125250    
_________________________________________________________________
dense_4 (Dense)              (None, 1)                 251       
=================================================================
Total params: 1,677,001
Trainable params: 1,677,001
Non-trainable params: 0
_________________________________________________________________
None
