699684/699684 - 12s - loss: 3.8320e-04 - mean_absolute_error: 0.0145 - mean_squared_error: 3.8320e-04
[0.00038319747679964853, 0.014524155, 0.00038319724]


149932/149932 - 2s - loss: 3.8455e-04 - mean_absolute_error: 0.0146 - mean_squared_error: 3.8455e-04
[0.00038455110297645886, 0.0145629365, 0.00038455118]


Model: "sequential"
_________________________________________________________________
Layer (type)                 Output Shape              Param #   
=================================================================
dense (Dense)                (None, 500)               25500     
_________________________________________________________________
dense_1 (Dense)              (None, 300)               150300    
_________________________________________________________________
dense_2 (Dense)              (None, 200)               60200     
_________________________________________________________________
dense_3 (Dense)              (None, 100)               20100     
_________________________________________________________________
dense_4 (Dense)              (None, 1)                 101       
=================================================================
Total params: 256,201
Trainable params: 256,201
Non-trainable params: 0
_________________________________________________________________
None
