699796/699796 - 29s - loss: 3.3136e-05 - mean_absolute_error: 0.0193 - mean_squared_error: 9.3605e-04
[3.3135934894023966e-05, 0.019308835, 0.0009360517]


149955/149955 - 6s - loss: 3.3830e-05 - mean_absolute_error: 0.0193 - mean_squared_error: 9.4067e-04
[3.383045102088949e-05, 0.01933008, 0.00094067474]


Model: "sequential"
_________________________________________________________________
Layer (type)                 Output Shape              Param #   
=================================================================
dense (Dense)                (None, 200)               10000     
_________________________________________________________________
dense_1 (Dense)              (None, 150)               30150     
_________________________________________________________________
dense_2 (Dense)              (None, 100)               15100     
_________________________________________________________________
dense_3 (Dense)              (None, 100)               10100     
_________________________________________________________________
dense_4 (Dense)              (None, 50)                5050      
_________________________________________________________________
dense_5 (Dense)              (None, 1)                 51        
=================================================================
Total params: 70,451
Trainable params: 70,451
Non-trainable params: 0
_________________________________________________________________
None
