1594227/1594227 - 30s - loss: 2.0472e-04 - mae: 0.0083 - mse: 2.0472e-04
[0.00020472046722956803, 0.008263834, 0.0002047209]


398556/398556 - 7s - loss: 2.0584e-04 - mae: 0.0083 - mse: 2.0584e-04
[0.00020584454498154126, 0.008291481, 0.00020584452]


Model: "sequential"
_________________________________________________________________
Layer (type)                 Output Shape              Param #   
=================================================================
conv2d (Conv2D)              (None, 4, 4, 32)          160       
_________________________________________________________________
conv2d_1 (Conv2D)            (None, 3, 3, 64)          8256      
_________________________________________________________________
flatten (Flatten)            (None, 576)               0         
_________________________________________________________________
dense (Dense)                (None, 100)               57700     
_________________________________________________________________
dense_1 (Dense)              (None, 1)                 101       
=================================================================
Total params: 66,217
Trainable params: 66,217
Non-trainable params: 0
_________________________________________________________________
None
