699699/699699 - 19s - loss: 2.6726e-04 - mean_absolute_error: 0.0116 - mean_squared_error: 2.6726e-04
[0.0002672586415555948, 0.0115661295, 0.00026725922]


149935/149935 - 3s - loss: 2.6884e-04 - mean_absolute_error: 0.0116 - mean_squared_error: 2.6884e-04
[0.00026883832605449404, 0.011584199, 0.00026883805]


Model: "sequential"
_________________________________________________________________
Layer (type)                 Output Shape              Param #   
=================================================================
dense (Dense)                (None, 500)               24500     
_________________________________________________________________
dense_1 (Dense)              (None, 300)               150000    
_________________________________________________________________
dense_2 (Dense)              (None, 200)               60000     
_________________________________________________________________
dense_3 (Dense)              (None, 150)               30000     
_________________________________________________________________
dense_4 (Dense)              (None, 100)               15000     
_________________________________________________________________
dense_5 (Dense)              (None, 1)                 101       
=================================================================
Total params: 279,601
Trainable params: 279,601
Non-trainable params: 0
_________________________________________________________________
None
