699852/699852 - 20s - loss: 4.0675e-05 - mean_absolute_error: 0.0171 - mean_squared_error: 6.0188e-04
[4.0675456318005984e-05, 0.017132154, 0.00060188264]


149968/149968 - 3s - loss: 4.1739e-05 - mean_absolute_error: 0.0173 - mean_squared_error: 6.1494e-04
[4.173874733155047e-05, 0.017333923, 0.00061494374]


Model: "sequential"
_________________________________________________________________
Layer (type)                 Output Shape              Param #   
=================================================================
dense (Dense)                (None, 200)               19800     
_________________________________________________________________
dense_1 (Dense)              (None, 180)               36180     
_________________________________________________________________
dense_2 (Dense)              (None, 150)               27150     
_________________________________________________________________
dense_3 (Dense)              (None, 120)               18120     
_________________________________________________________________
dense_4 (Dense)              (None, 100)               12100     
_________________________________________________________________
dense_5 (Dense)              (None, 1)                 101       
=================================================================
Total params: 113,451
Trainable params: 113,451
Non-trainable params: 0
_________________________________________________________________
None
