699796/699796 - 63s - loss: 3.2886e-05 - mean_absolute_error: 0.0193 - mean_squared_error: 9.5662e-04
[3.2886469781265575e-05, 0.019292198, 0.00095661735]


149955/149955 - 13s - loss: 3.3791e-05 - mean_absolute_error: 0.0193 - mean_squared_error: 9.6327e-04
[3.379140039408622e-05, 0.019332536, 0.0009632681]


Model: "sequential"
_________________________________________________________________
Layer (type)                 Output Shape              Param #   
=================================================================
dense (Dense)                (None, 200)               10000     
_________________________________________________________________
dense_1 (Dense)              (None, 500)               100500    
_________________________________________________________________
dense_2 (Dense)              (None, 1000)              501000    
_________________________________________________________________
dense_3 (Dense)              (None, 500)               500500    
_________________________________________________________________
dense_4 (Dense)              (None, 150)               75150     
_________________________________________________________________
dense_5 (Dense)              (None, 1)                 151       
=================================================================
Total params: 1,187,301
Trainable params: 1,187,301
Non-trainable params: 0
_________________________________________________________________
None
