797091/797091 - 68s - loss: 1.6281e-04 - mae: 0.0095 - mse: 1.6281e-04
[0.00016281057335390469, 0.009520117, 0.00016281087]


199272/199272 - 12s - loss: 1.6075e-04 - mae: 0.0095 - mse: 1.6075e-04
[0.0001607540577510941, 0.009475051, 0.0001607542]


Model: "sequential"
_________________________________________________________________
Layer (type)                 Output Shape              Param #   
=================================================================
conv2d (Conv2D)              (None, 2, 2, 64)          320       
_________________________________________________________________
conv2d_1 (Conv2D)            (None, 1, 1, 128)         32896     
_________________________________________________________________
flatten (Flatten)            (None, 128)               0         
_________________________________________________________________
dense (Dense)                (None, 100)               12900     
_________________________________________________________________
dense_1 (Dense)              (None, 1)                 101       
=================================================================
Total params: 46,217
Trainable params: 46,217
Non-trainable params: 0
_________________________________________________________________
None
