800000/800000 - 126s - loss: 3.2440e-05 - mae: 0.0040 - mse: 3.2441e-05
[3.244042860926129e-05, 0.0040043835, 3.244056e-05]


200000/200000 - 25s - loss: 3.2781e-05 - mae: 0.0040 - mse: 3.2781e-05
[3.278111111292674e-05, 0.0040247957, 3.278115e-05]


Model: "sequential"
_________________________________________________________________
Layer (type)                 Output Shape              Param #   
=================================================================
conv2d (Conv2D)              (None, 4, 4, 32)          288       
_________________________________________________________________
conv2d_1 (Conv2D)            (None, 3, 3, 64)          8256      
_________________________________________________________________
flatten (Flatten)            (None, 576)               0         
_________________________________________________________________
dense (Dense)                (None, 100)               57700     
_________________________________________________________________
dense_1 (Dense)              (None, 1)                 101       
=================================================================
Total params: 66,345
Trainable params: 66,345
Non-trainable params: 0
_________________________________________________________________
None
