797169/797169 - 50s - loss: 2.5097e-05 - mae: 0.0036 - mse: 2.5097e-05
[2.5097038667333777e-05, 0.0035746011, 2.5096913e-05]


199292/199292 - 11s - loss: 2.5242e-05 - mae: 0.0036 - mse: 2.5242e-05
[2.524225913532465e-05, 0.003576629, 2.5242236e-05]


Model: "sequential"
_________________________________________________________________
Layer (type)                 Output Shape              Param #   
=================================================================
conv2d (Conv2D)              (None, 6, 6, 32)          288       
_________________________________________________________________
conv2d_1 (Conv2D)            (None, 5, 5, 64)          8256      
_________________________________________________________________
flatten (Flatten)            (None, 1600)              0         
_________________________________________________________________
dense (Dense)                (None, 100)               160100    
_________________________________________________________________
dense_1 (Dense)              (None, 1)                 101       
=================================================================
Total params: 168,745
Trainable params: 168,745
Non-trainable params: 0
_________________________________________________________________
None
