800000/800000 - 27s - loss: 2.4761e-05 - mae: 0.0036 - mse: 2.4761e-05
[2.4760856129487365e-05, 0.0035657487, 2.4760775e-05]


200000/200000 - 6s - loss: 2.5009e-05 - mae: 0.0036 - mse: 2.5009e-05
[2.5009245134933735e-05, 0.0035816866, 2.5009262e-05]


Model: "sequential"
_________________________________________________________________
Layer (type)                 Output Shape              Param #   
=================================================================
conv2d (Conv2D)              (None, 6, 6, 32)          288       
_________________________________________________________________
conv2d_1 (Conv2D)            (None, 5, 5, 64)          8256      
_________________________________________________________________
flatten (Flatten)            (None, 1600)              0         
_________________________________________________________________
dense (Dense)                (None, 100)               160100    
_________________________________________________________________
dense_1 (Dense)              (None, 1)                 101       
=================================================================
Total params: 168,745
Trainable params: 168,745
Non-trainable params: 0
_________________________________________________________________
None
