800000/800000 - 28s - loss: 6.2381e-05 - mae: 0.0058 - mse: 6.2381e-05
[6.238106160941242e-05, 0.00576838, 6.238123e-05]


200000/200000 - 7s - loss: 6.2391e-05 - mae: 0.0058 - mse: 6.2391e-05
[6.239138234115672e-05, 0.005776392, 6.239141e-05]


Model: "sequential"
_________________________________________________________________
Layer (type)                 Output Shape              Param #   
=================================================================
dense (Dense)                (None, 100)               5000      
_________________________________________________________________
dropout (Dropout)            (None, 100)               0         
_________________________________________________________________
dense_1 (Dense)              (None, 80)                8080      
_________________________________________________________________
dropout_1 (Dropout)          (None, 80)                0         
_________________________________________________________________
dense_2 (Dense)              (None, 1)                 81        
=================================================================
Total params: 13,161
Trainable params: 13,161
Non-trainable params: 0
_________________________________________________________________
None
