21869/21869 - 21s - loss: 7.0488e-04 - mae: 0.0182 - mse: 7.0488e-04
[0.0007048753323033452, 0.018227899447083473, 0.0007048753323033452]


4687/4687 - 4s - loss: 7.3729e-04 - mae: 0.0186 - mse: 7.3729e-04
[0.0007372905383817852, 0.018584301695227623, 0.0007372905383817852]


Model: "sequential"
_________________________________________________________________
Layer (type)                 Output Shape              Param #   
=================================================================
dense (Dense)                (None, 200)               10200     
_________________________________________________________________
dense_1 (Dense)              (None, 200)               40200     
_________________________________________________________________
dense_2 (Dense)              (None, 200)               40200     
_________________________________________________________________
dense_3 (Dense)              (None, 200)               40200     
_________________________________________________________________
dense_4 (Dense)              (None, 200)               40200     
_________________________________________________________________
dense_5 (Dense)              (None, 1)                 201       
=================================================================
Total params: 171,201
Trainable params: 171,201
Non-trainable params: 0
_________________________________________________________________
None
