699699/699699 - 58s - loss: 2.6973e-04 - mean_absolute_error: 0.0116 - mean_squared_error: 2.6973e-04
[0.0002697310435384777, 0.011648662, 0.00026973078]


149935/149935 - 10s - loss: 2.7162e-04 - mean_absolute_error: 0.0117 - mean_squared_error: 2.7162e-04
[0.0002716223660744259, 0.011675986, 0.0002716221]


Model: "sequential"
_________________________________________________________________
Layer (type)                 Output Shape              Param #   
=================================================================
dense (Dense)                (None, 500)               24500     
_________________________________________________________________
dense_1 (Dense)              (None, 300)               150000    
_________________________________________________________________
dense_2 (Dense)              (None, 200)               60000     
_________________________________________________________________
dense_3 (Dense)              (None, 150)               30000     
_________________________________________________________________
dense_4 (Dense)              (None, 100)               15000     
_________________________________________________________________
dense_5 (Dense)              (None, 1)                 101       
=================================================================
Total params: 279,601
Trainable params: 279,601
Non-trainable params: 0
_________________________________________________________________
None
