800000/800000 - 18s - loss: 2.6688e-04 - mae: 0.0125 - mse: 2.6688e-04
[0.00026687875013420124, 0.01248739, 0.000266878]


200000/200000 - 4s - loss: 2.6696e-04 - mae: 0.0125 - mse: 2.6696e-04
[0.00026695741247036495, 0.012488151, 0.000266957]


Model: "sequential"
_________________________________________________________________
Layer (type)                 Output Shape              Param #   
=================================================================
dense (Dense)                (None, 500)               25000     
_________________________________________________________________
dropout (Dropout)            (None, 500)               0         
_________________________________________________________________
dense_1 (Dense)              (None, 200)               100200    
_________________________________________________________________
dropout_1 (Dropout)          (None, 200)               0         
_________________________________________________________________
dense_2 (Dense)              (None, 100)               20100     
_________________________________________________________________
dropout_2 (Dropout)          (None, 100)               0         
_________________________________________________________________
dense_3 (Dense)              (None, 1)                 101       
=================================================================
Total params: 145,401
Trainable params: 145,401
Non-trainable params: 0
_________________________________________________________________
None
