1594227/1594227 - 54s - loss: 1.7441e-04 - mae: 0.0079 - mse: 1.7442e-04
[0.00017441469375050004, 0.007944583, 0.00017441553]


398556/398556 - 11s - loss: 1.7705e-04 - mae: 0.0080 - mse: 1.7705e-04
[0.0001770503296190372, 0.007989428, 0.00017705015]


Model: "sequential"
_________________________________________________________________
Layer (type)                 Output Shape              Param #   
=================================================================
conv2d (Conv2D)              (None, 4, 4, 32)          160       
_________________________________________________________________
conv2d_1 (Conv2D)            (None, 3, 3, 64)          8256      
_________________________________________________________________
flatten (Flatten)            (None, 576)               0         
_________________________________________________________________
dense (Dense)                (None, 100)               57700     
_________________________________________________________________
dense_1 (Dense)              (None, 1)                 101       
=================================================================
Total params: 66,217
Trainable params: 66,217
Non-trainable params: 0
_________________________________________________________________
None
