349716/349716 - 5s - loss: 1.7174e-04 - mean_absolute_error: 0.0098 - mean_squared_error: 1.7174e-04
[0.00017174007575060125, 0.0098219365, 0.00017173983]


74939/74939 - 1s - loss: 1.7001e-04 - mean_absolute_error: 0.0098 - mean_squared_error: 1.7001e-04
[0.0001700142441850586, 0.009765706, 0.0001700142]


Model: "sequential"
_________________________________________________________________
Layer (type)                 Output Shape              Param #   
=================================================================
dense (Dense)                (None, 200)               10000     
_________________________________________________________________
dense_1 (Dense)              (None, 150)               30150     
_________________________________________________________________
dense_2 (Dense)              (None, 120)               18120     
_________________________________________________________________
dense_3 (Dense)              (None, 80)                9680      
_________________________________________________________________
dense_4 (Dense)              (None, 50)                4050      
_________________________________________________________________
dense_5 (Dense)              (None, 1)                 51        
=================================================================
Total params: 72,051
Trainable params: 72,051
Non-trainable params: 0
_________________________________________________________________
None
