800000/800000 - 17s - loss: 1.9742e-05 - mae: 0.0031 - mse: 1.9742e-05
[1.974238870575391e-05, 0.0030503913, 1.9742403e-05]


200000/200000 - 4s - loss: 2.0150e-05 - mae: 0.0031 - mse: 2.0150e-05
[2.0150164821898214e-05, 0.0030799808, 2.0150155e-05]


Model: "sequential"
_________________________________________________________________
Layer (type)                 Output Shape              Param #   
=================================================================
conv2d (Conv2D)              (None, 6, 6, 32)          160       
_________________________________________________________________
conv2d_1 (Conv2D)            (None, 5, 5, 64)          8256      
_________________________________________________________________
flatten (Flatten)            (None, 1600)              0         
_________________________________________________________________
dense (Dense)                (None, 100)               160100    
_________________________________________________________________
dense_1 (Dense)              (None, 1)                 101       
=================================================================
Total params: 168,617
Trainable params: 168,617
Non-trainable params: 0
_________________________________________________________________
None
